code/EASE/EASE.pth (torch, 509043 bytes, 18 tensors)

weight f4 [128, 192]
0	0xbd6cf4d2	-0.057850666
1	0xbd427f83	-0.047484886
2	0xbd85139b	-0.0649788
3	0xbd457d0c	-0.048214957
4	0xbd4a89ec	-0.04944794
5	0x3d83c395	0.06433789
6	0xbd943815	-0.07237259
7	0xbc6805b0	-0.014161512
8	0x3ce5cd0a	0.028051872
9	0xbd3b4c66	-0.045727156
10	0x3d9c9aba	0.07646699
11	0x3c0a2749	0.008432218
12	0xbcf29c82	-0.029615644
13	0x3d906714	0.070509106
14	0xbdc3c0d2	-0.09558262
15	0x3ccdb092	0.02510861
16	0xbc9a7c27	-0.018858029
17	0xbbb35672	-0.0054729516
18	0xbd4763b4	-0.04867907
19	0x3d90fdb3	0.07079639
20	0x3c5059e6	0.012716746
21	0xbd1de24a	-0.038545884
22	0xbd846ad3	-0.064656876
23	0x3d136122	0.035981305
24	0x3d8b6bcb	0.06807669
25	0x3d2814cc	0.04103546
26	0xbc8ff8fe	-0.017574783
27	0x3d3c0e60	0.045912147
28	0x3d8455ea	0.06461699
29	0x3c52831f	0.0128486445
30	0x3d5dbd8c	0.054135844
31	0xbc6f6628	-0.014611758
32	0xbb2bcb13	-0.002621357
33	0xbd4ba6b3	-0.049719524
34	0xbd12220a	-0.035676993
35	0x3cce2c40	0.025167584
36	0x3cab28a2	0.020893399
37	0xbc8a28af	-0.016865103
38	0x3d6cde15	0.05782898
39	0xbd418460	-0.047245383
40	0xbad729e6	-0.0016415685
41	0xbdb694e4	-0.089151174
42	0x3d1ad24f	0.037798222
43	0x3ca2e882	0.019886259
44	0xbcdcce4c	-0.026953839
45	0x3caaf65e	0.02086943
46	0xbc8f0e4f	-0.017462878
47	0xbca6dd0e	-0.020369079
48	0x3d9a36ea	0.07530005
49	0x3da516a0	0.08060956
50	0x3d5d6e3c	0.054060206
51	0x3d87616d	0.06610379
52	0x3d88e320	0.06683946
53	0x3ce61205	0.028084764
54	0x3cafb9b9	0.021450864
55	0xbd01f0aa	-0.031723656
56	0xbd79f223	-0.061021935
57	0xbba0a089	-0.00490195
58	0x3a2d9750	0.00066219736
59	0xbd3ef66e	-0.046621732
60	0x3cad9553	0.021189367
61	0x3d3210f6	0.043473206
62	0x3d9eafff	0.07748412
63	0xbd9d732a	-0.076879814
64	0xbc7d2a04	-0.015451912
65	0xbd02286c	-0.03177683
66	0x3d3ed087	0.046585586
67	0x3cde7201	0.02715397
68	0xbcfa4acb	-0.030553242
69	0x3cec2d1f	0.02883011
70	0xbc5a2bf9	-0.013316148
71	0xbcf0c8bc	-0.029392593
72	0xbcb7f45c	-0.022455387
73	0x3deb51f1	0.114902385
74	0x3d934337	0.071905546
75	0xbcd18a64	-0.025578685
76	0xbd25365e	-0.04033505
77	0x3d29ed67	0.04148617
78	0x3cc38e39	0.023871528
79	0xbd31b0f7	-0.043381657
80	0xbd14ce91	-0.03632981
81	0x3c12b71b	0.008954789
82	0xbd5eddaa	-0.054410614
83	0x3c9d8031	0.019226165
84	0xbd76c8a4	-0.06024994
85	0x3d9fbca9	0.07799656
86	0x3d089703	0.03334714
87	0xbdb48f76	-0.088164255
88	0xbcea2559	-0.028582262
89	0xbcd13c92	-0.025541577
90	0x3ba46dbc	0.005017964
91	0x3a835c78	0.0010022065
92	0xbd6d84e5	-0.057988066
93	0xbd89b413	-0.067237996
94	0x3b8b7a39	0.0042565134
95	0xbdbab898	-0.0911724
96	0xbd4c1f6d	-0.049834657
97	0x3c94bc9d	0.018156344
98	0x3d7494c5	0.05971219
99	0xba92691f	-0.0011170245
100	0x3c4eb735	0.012616922
101	0xbc15c00d	-0.009140027
102	0xbd4653ee	-0.048419885
103	0xbb59009e	-0.003311194
104	0x3dcc1c7a	0.09966369
105	0x3def78db	0.11692973
106	0x3d194816	0.037422262
107	0xbc0727a2	-0.008249195
108	0xbdae5348	-0.085119784
109	0xbdbf7757	-0.09348934
110	0xbc5de8f8	-0.013544314
111	0xbcbb7e91	-0.0228875
112	0xbd59161f	-0.052999612
113	0x3c0c329d	0.008556989
114	0x3da9a567	0.08283501
115	0x3d28d570	0.041219175
116	0x3d166b28	0.036723286
117	0xbdc94aa1	-0.098286875
118	0x3cae37d3	0.021266853
119	0xbc801653	-0.015635645
120	0xbd994c06	-0.074852034
121	0x3cab6043	0.020919925
122	0x3dd14e8c	0.1022006
123	0xbd669768	-0.056296736
124	0xbd64767b	-0.055777054
125	0xbb90a2c0	-0.0044139326
126	0xbd6ac177	-0.05731341
127	0xbd80f92b	-0.06297525
128	0x3d9756e9	0.07389624
129	0xbd210dfe	-0.039319985
130	0x3d7a9d46	0.061185144
131	0xbc605325	-0.013691698
132	0x3cd0568e	0.025431897
133	0xbd6d979c	-0.058005914
134	0x3d6324a0	0.05545485
135	0x3d68a4bd	0.05679773
136	0x3d8766d3	0.06611409
137	0xbba5065b	-0.005036158
138	0x3d329ba1	0.04360545
139	0x3def2d44	0.116785556
140	0xbd4f2565	-0.05057277
141	0x3ce37bf2	0.027769063
142	0xbcd8bfb7	-0.026458604
143	0x3cdb9e63	0.026808923
144	0x3d0b9ac3	0.03408314
145	0xbd96b95e	-0.07359575
146	0x3b74d85c	0.0037360406
147	0x3e01f39d	0.12690587
148	0x3d73379c	0.059379205
149	0xbd2b6968	-0.04184857
150	0x3be8eaf5	0.007108087
151	0x3d7aba0c	0.061212584
152	0x3cd0063c	0.025393598
153	0x3d3d5f41	0.04623342
154	0xbdcc378e	-0.09971534
155	0x3ca8a2e2	0.020585481
156	0x3b1a5f26	0.0023555248
157	0xbc95c74f	-0.018283514
158	0x3dd92be7	0.10604077
159	0x3c1918da	0.009344304
160	0x3cc090fc	0.023506634
161	0x3d9f6f26	0.07784872
162	0x3d3061bc	0.043061957
163	0x3b68f557	0.0035546625
164	0xbdbd5739	-0.09245152
165	0xbdcb5c8c	-0.09929761
166	0xbdb9ccaa	-0.0907224
167	0xbdcca1e2	-0.09991814
168	0x3d8a9723	0.06767108
169	0x3d94d3df	0.07266974
170	0xbdae1eee	-0.08501993
171	0xbd3245ba	-0.043523528
172	0x3d1653e6	0.036701106
173	0x3ca99a9e	0.02070361
174	0x3d48a36a	0.04898397
175	0x3dda3f39	0.1065659
176	0xbcdf060e	-0.027224567
177	0xbd18a467	-0.03726616
178	0xbd9459a6	-0.072436616
179	0xbc8871ee	-0.016655888
180	0xbdc8f5b2	-0.09812488
181	0x3dff778f	0.12473976
182	0xbc7923d3	-0.015206295
183	0x3d1f8e90	0.038954318
184	0xbd5c278c	-0.053748652
185	0xbd1faca1	-0.03898299
186	0xbc924ad5	-0.017857948
187	0xbb9f983d	-0.004870443
188	0x3dc5666d	0.09638677
189	0xbd497db0	-0.04919213
190	0x3cb3120d	0.021859193
191	0xbd1391e2	-0.036027797
192	0x3ba40d32	0.005006456
193	0x3d826c0a	0.06368263
194	0x3cd19732	0.02558479
195	0x3de19261	0.11014248
196	0x3d0685c5	0.032842416
197	0xbbf5f396	-0.0075058443
198	0xbd1f4795	-0.038886625
199	0x3dc0340f	0.093849294
200	0xbda7230b	-0.08160981
201	0x3d8bc8b7	0.06825393
202	0xbdd982f8	-0.106206834
203	0x3dc82a51	0.09773696
204	0x3e0723df	0.13197277
205	0xbc2b429e	-0.0104528945
206	0x3defbf47	0.11706405
207	0x3d858d16	0.06521051
208	0x3bb2e6db	0.005459649
209	0x3c8f9e03	0.0175314
210	0xbb9362c4	-0.0044978578
211	0xbd914c0a	-0.070945814
212	0x3cf4c052	0.029876862
213	0xbcc0a3a3	-0.023515528
214	0xbdca3f5d	-0.09875367
215	0xbd7f00ed	-0.062256742
216	0xbdff1fc6	-0.12457232
217	0x3d4966ef	0.04917043
218	0x3b821ed8	0.003970962
219	0xbcb7385e	-0.022365745
220	0xbc4a1385	-0.012333755
221	0xbd41d0e2	-0.047318347
222	0xbc80829e	-0.015687283
223	0x3d434555	0.047673542
224	0xbd83a281	-0.064274795
225	0x3e093701	0.13399889
226	0x3db17b4d	0.08666096
227	0x3ca5ffd1	0.020263584
228	0xbd0fdc5a	-0.035122253
229	0xbc6745d6	-0.014115771
230	0x3d8206a6	0.06348924
231	0xbdb629a0	-0.08894658
232	0xbdcaf6fa	-0.09910388
233	0x3d095dc7	0.0335367
234	0x3da425c3	0.08015015
235	0xbda9216b	-0.08258327
236	0x3d929ee5	0.07159213
237	0xbb963a21	-0.004584566
238	0x3df985d3	0.12183728
239	0xbe07c218	-0.13257635
240	0xbd5b65a6	-0.053563736
241	0xbd5ecb15	-0.054392893
242	0xbcf93b3b	-0.030423751
243	0xbdbbade2	-0.09164025
244	0x3d49096f	0.049081262
245	0xbd73def0	-0.05953878
246	0x3d7c9394	0.06166418
247	0x3d9e749f	0.077370875
248	0xbd58b10b	-0.052903216
249	0xbd1d0d47	-0.03834274
250	0x3adf0f26	0.0017018064
251	0xbd88fd09	-0.066888876
252	0x3d887267	0.066624455
253	0x3df2cfb6	0.11856024
254	0xbe075a4f	-0.13218044
255	0x3d715e94	0.058928087

bias f4 [128]
0	0xbd3d2c68	-0.046184927
1	0x3cb13df9	0.021635996
2	0x3d9114b5	0.07084028
3	0x3de9f0e5	0.114229
4	0x3d35c328	0.04437557
5	0xbc918271	-0.017762395
6	0x3da1c008	0.07897955
7	0x3c1f47b8	0.009721689
8	0xbcbaac1b	-0.022787144
9	0x3bf2d800	0.007411003
10	0x3aba0e21	0.0014194885
11	0x3d15dc55	0.036587078
12	0xbd605380	-0.05476713
13	0x3d042270	0.032259405
14	0xbd00ac12	-0.0314141
15	0xbcb168ca	-0.021656413
16	0x3e045bea	0.12925687
17	0x3cf2daee	0.02964541
18	0xbd538ace	-0.051646046
19	0x3d01c35a	0.031680442
20	0x3d637eb4	0.055540755
21	0xbce1a16d	-0.027542794
22	0xbd29bca8	-0.041439682
23	0xbcc9657a	-0.02458452
24	0xbd1a4a56	-0.03766855
25	0xbc58c3a4	-0.013230238
26	0x3d0a54b6	0.033772193
27	0x3d2b76eb	0.041861456
28	0xbc76241a	-0.015023256
29	0xbd7f90d2	-0.06239397
30	0x3d0fb245	0.03508212
31	0x3c2a756d	0.010403973
32	0xbc7aabd9	-0.015299761
33	0xbdc3954b	-0.0954996
34	0x3d183c25	0.037166733
35	0xbc9aba74	-0.018887736
36	0xbda17809	-0.07884223
37	0xbd089e62	-0.03335417
38	0x3d20374d	0.03911524
39	0x3cacc78c	0.021091245
40	0xbd8333b3	-0.06406345
41	0xbdca9c9d	-0.09893153
42	0x3d2b7450	0.04185897
43	0xbda42da0	-0.08016515
44	0x3dae9175	0.085238375
45	0xbd646f07	-0.055769946
46	0xbc77025b	-0.015076245
47	0xbd52f249	-0.051500592
48	0xbd89351a	-0.066995814
49	0xbb1028bc	-0.0021996936
50	0x3be28fe0	0.006914124
51	0x3d280033	0.041015815
52	0x3ce91ebb	0.028457036
53	0x3d54237b	0.05179165
54	0x3ccb0f34	0.024787523
55	0xbd340d1f	-0.043957826
56	0xbd1768d1	-0.036965195
57	0x3d141543	0.03615309
58	0x3a264dc1	0.00063439837
59	0x3c3cc79f	0.011522203
60	0x3d803c83	0.06261542
61	0xbd068128	-0.032838017
62	0x3cdcfb17	0.026975198
63	0xbd00ef53	-0.031478237
64	0x3da8f31d	0.08249495
65	0xbd93f485	-0.07224373
66	0xbd50e1e6	-0.050996684
67	0x3d35712a	0.044297375
68	0xbc90ee57	-0.017691774
69	0x3b693df4	0.0035589905
70	0xbd2464a4	-0.04013504
71	0xbd83d90c	-0.06437883
72	0xbd46f33a	-0.048571803
73	0xbc1109f1	-0.008852468
74	0x3c1ee2f7	0.009697667
75	0x3d5a691e	0.053322904
76	0xbce1cf1b	-0.027564576
77	0x3df704f3	0.12061491
78	0x3cacfc4e	0.021116402
79	0x3d9733f8	0.07382959
80	0xbe1b62c7	-0.151744
81	0x3bd2cc5b	0.0064330525
82	0xbccb0dd3	-0.024786865
83	0xbc17c7a2	-0.009263905
84	0xbd703284	-0.058641925
85	0xbcfa0273	-0.030518746
86	0x3d36a54e	0.04459124
87	0xbb1e899b	-0.0024190906
88	0x3c531ab3	0.012884784
89	0x3c1f563a	0.009725148
90	0xbd839b44	-0.06426099
91	0x3cd4a602	0.025958065
92	0xbd075802	-0.033042915
93	0xb9143283	-0.00014133197
94	0xbcc329c0	-0.023823619
95	0x3d6512c3	0.055926096
96	0xbd466bbe	-0.048442595
97	0x3d259857	0.040428486
98	0xbdfd8b47	-0.12380081
99	0x3db708d9	0.089372344
100	0x3be9a9d7	0.007130842
101	0xbd36e9a8	-0.044656426
102	0x3d8612b8	0.06546539
103	0xbcda2369	-0.026628213
104	0x3cffa859	0.031208204
105	0xbd29dc74	-0.041470006
106	0x3c5931b2	0.013256477
107	0x3d0f238d	0.034946013
108	0x3b4a8dcf	0.0030907278
109	0x3d05fd67	0.032712366
110	0xbacf58ad	-0.0015819274
111	0x3c8903f2	0.016725514
112	0xbd0a7635	-0.033804137
113	0xbdb6a7df	-0.089187376
114	0xbd37e2d6	-0.044894062
115	0x399d0b91	0.0002995399
116	0x3d83ca22	0.06435038
117	0xbd3a41fd	-0.045473088
118	0x3d233ac9	0.039850984
119	0x3c0a08c1	0.008424939
120	0xbda9d13d	-0.08291862
121	0xbd72f141	-0.05931211
122	0xbc8197c2	-0.015819434
123	0xbe203721	-0.1564603
124	0x3c64ba92	0.013960497
125	0xbd60f6d0	-0.05492288
126	0x3db2c221	0.087284334
127	0x3d5ee6db	0.05441938

weight f4 [128, 128]
0	0x3bda1142	0.0066548893
1	0x3daca453	0.0842978
2	0x3d83cd76	0.06435673
3	0xbd3630f2	-0.04448027
4	0xbcf0804a	-0.029358048
5	0x3d1d188e	0.038353495
6	0x3d9291a4	0.07156685
7	0x3dd19a27	0.1023448
8	0x3a735a01	0.0009283126
9	0xbcb16a42	-0.021657113
10	0xbd4a0274	-0.049318746
11	0x3d92302b	0.071380936
12	0x3d5b0fe0	0.053481936
13	0xbbd49a61	-0.00648813
14	0xbbb76925	-0.005597251
15	0xbc9c0bc9	-0.019048588
16	0xbd706da2	-0.058698304
17	0xbd3c7e5d	-0.046018947
18	0x3cf4fa8a	0.029904623
19	0x3d6db5a5	0.058034558
20	0xbd7449b5	-0.059640605
21	0x3d93ea90	0.072224736
22	0x3d26f7f5	0.040763814
23	0xbcea6624	-0.028613158
24	0x3c01dc41	0.007926048
25	0xba8a0d08	-0.0010532448
26	0x3d27bd7f	0.040952202
27	0x3d6cc7a9	0.0578076
28	0x3d379d58	0.04482779
29	0x3daa0d88	0.08303362
30	0x3d8b3ee6	0.06799106
31	0xbd46b24f	-0.048509892
32	0xbc8c03b5	-0.017091611
33	0x3d2d1dc1	0.042264704
34	0x3c63b00c	0.013896953
35	0xbd8ad506	-0.06778912
36	0xbcc391fc	-0.023873322
37	0xbd9454a5	-0.07242707
38	0xbccdc878	-0.025120005
39	0xbd07e922	-0.033181317
40	0x3c83b937	0.016079528
41	0x3c8935b5	0.016749242
42	0xbda328cd	-0.079667665
43	0xbc054b68	-0.008135654
44	0x3d9cede3	0.07662561
45	0x3df98d34	0.121851355
46	0xbd72d82e	-0.059288196
47	0xbc8fe611	-0.017565759
48	0xbd805153	-0.06265511
49	0xbd0d2daf	-0.034467395
50	0x3c04b73c	0.008100327
51	0xbda11dea	-0.07867034
52	0xbcebc188	-0.028778806
53	0xbd328bfd	-0.043590534
54	0x3d186b8a	0.037211932
55	0x3da61ba0	0.08110738
56	0x3cd0df4a	0.025497098
57	0x3d43904f	0.047745045
58	0x3d99b114	0.07504478
59	0x3d658b02	0.05604077
60	0xbadc78c2	-0.0016820657
61	0x3ca44d33	0.020056343
62	0xbb9f76c0	-0.004866451
63	0xbcbcabd5	-0.023031155
64	0x3cba2917	0.022724671
65	0xbbe73958	-0.0070563965
66	0xbc872a93	-0.016499793
67	0x3cd04da6	0.02542765
68	0x3b990098	0.0046692602
69	0xbd8633e4	-0.06552866
70	0x3db0fcbc	0.08641955
71	0x3e056b12	0.13029125
72	0x3d691ab1	0.05691022
73	0xbda53cf8	-0.080682695
74	0x3b9af684	0.004729094
75	0xbc66c058	-0.014083944
76	0x3d545f3a	0.051848628
77	0x3d868b43	0.06569531
78	0x3cb1392a	0.021633703
79	0x3c279a6d	0.010229689
80	0x3d54dc6a	0.051968016
81	0xbbe9893e	-0.0071269562
82	0x3d24e647	0.040258672
83	0x3c91e609	0.017809885
84	0xbd40ab37	-0.047038283
85	0x3d014a2e	0.031564884
86	0x3dc8a435	0.09796945
87	0xbd9c24b0	-0.07624185
88	0xbc5518a5	-0.013006364
89	0xbddaa7a3	-0.106765054
90	0x3cb31b3a	0.021863569
91	0x3d9271ea	0.07150634
92	0x3d6ffac3	0.058588754
93	0x3cdfc47a	0.027315367
94	0x3ce9a5ed	0.028521502
95	0x3d163e19	0.036680315
96	0x3cf40e96	0.029792111
97	0xbda1ddad	-0.079036094
98	0x3d8966d9	0.0670907
99	0x3d19e361	0.03757036
100	0xbd644434	-0.055729106
101	0xbd995884	-0.07487586
102	0x3cea9788	0.028636709
103	0xbd2ae94b	-0.04172639
104	0xbcb065d0	-0.021532923
105	0x3bec50ef	0.0072117965
106	0xbd698ee8	-0.05702105
107	0xbd3eebe1	-0.04661167
108	0x3d92fa76	0.07176678
109	0x3d8549e8	0.06508237
110	0x3c1d2a04	0.009592537
111	0xbd1d21d8	-0.038362354
112	0xbb978a4f	-0.004624642
113	0xbc2917bb	-0.010320599
114	0xbd7f89f4	-0.06238742
115	0x3bf9fb87	0.0076288613
116	0x3dd19813	0.10234084
117	0xbd46b2a9	-0.048510227
118	0xbd2af73a	-0.04173968
119	0xbd9ec6bb	-0.077527486
120	0x3c2bb155	0.010479291
121	0xbc67ef7f	-0.014156221
122	0x3cd1edda	0.025626112
123	0x3d7e1bf0	0.062038362
124	0xbccfbf34	-0.025359727
125	0x3d7d0875	0.061775643
126	0x3ce83661	0.028346242
127	0x3c7c7509	0.015408763
128	0x3dde141c	0.10843679
129	0x3ca2f502	0.01989222
130	0xbd935e33	-0.071957015
131	0xbc7caa9c	-0.015421536
132	0xbd6a6659	-0.057226513
133	0x3d846e49	0.06466348
134	0x3c54fd47	0.012999839
135	0xbd64b3fd	-0.055835713
136	0x3d5cded8	0.053923458
137	0x3d4e3ee6	0.050352953
138	0x3bd806fc	0.0065926295
139	0xb8962317	-7.1590934e-05
140	0x3d2322c9	0.039828096
141	0xbd85f076	-0.06540005
142	0xbd0bf280	-0.034166813
143	0xbcdeec28	-0.027212217
144	0xb9a2e235	-0.00031067585
145	0xbd3153f6	-0.043292962
146	0xbd61b2ae	-0.055102043
147	0xbdc8b0b5	-0.09799329
148	0xbb4fbd26	-0.0031698435
149	0x3d92eeea	0.071744755
150	0x3dad0e7f	0.084500305
151	0xbd05ae54	-0.032636955
152	0xbdafe449	-0.08588464
153	0xbda92a5e	-0.08260034
154	0x3d14f444	0.036365762
155	0xbd0ba407	-0.034091976
156	0xbc655b67	-0.013998843
157	0xbd853080	-0.06503391
158	0xbd28d019	-0.041214082
159	0xbc1277c4	-0.008939687
160	0xbd49843c	-0.049198374
161	0x3d46cdd8	0.04853615
162	0xbd9dd559	-0.077067085
163	0xbc56c7a4	-0.0131091215
164	0xbd4c4217	-0.049867716
165	0x3dc021e2	0.09381463
166	0x3d745175	0.059647996
167	0xbb5b39a7	-0.0033451112
168	0xbd0502ed	-0.032473493
169	0xbd92ceec	-0.071683735
170	0x3cdc4e12	0.026892696
171	0x3d1401ad	0.03613441
172	0xbd1ad2d9	-0.037798736
173	0x3ad79758	0.0016448302
174	0x3d53af66	0.051680945
175	0xbd8fd2f5	-0.07022659
176	0xbd57677e	-0.052588932
177	0xbd28a311	-0.041171137
178	0xbcee71f3	-0.02910707
179	0xbb67fadb	-0.0035397324
180	0xba0000cb	-0.00048829307
181	0xbc511e75	-0.012763609
182	0xbcc7ca32	-0.024388406
183	0x3c07188c	0.0082455985
184	0x3d35cb20	0.04438317
185	0x3d102169	0.035188112
186	0x3cbcb7e7	0.02303691
187	0x3d6aea17	0.05735215
188	0x3db6d7ed	0.08927903
189	0x3ce16a1d	0.027516419
190	0xbdd4db61	-0.10393406
191	0x3c017ce0	0.007903308
192	0xbbbc119c	-0.005739404
193	0xbcc857ac	-0.024455868
194	0x3dbdd21b	0.0926859
195	0xbcb79ba7	-0.022413088
196	0xbd855197	-0.06509703
197	0x3d590f6a	0.052993216
198	0x3d1cee5c	0.038313255
199	0x3d5fbbd6	0.054622494
200	0xbcb746c7	-0.022372616
201	0xbe2ad723	-0.1668363
202	0x3d54783c	0.051872477
203	0x3d5f9251	0.054582898
204	0x3c7d3779	0.01545512
205	0xbda9f190	-0.082980275
206	0x3d9abf4c	0.07556018
207	0x3c5d8e16	0.013522645
208	0xbd3a8475	-0.045536477
209	0xbdc09b44	-0.094046146
210	0xbdd4c2c1	-0.10388709
211	0x3d4d4502	0.05011464
212	0xbcf5d9cb	-0.030011078
213	0x3d54fd1e	0.051999204
214	0x3c4f64cb	0.012658308
215	0xbd698b47	-0.05701759
216	0xbd72352a	-0.059132732
217	0x3d4e99e7	0.05043974
218	0xbd25a2d0	-0.040438473
219	0x3d62c36e	0.055362158
220	0x3d611a48	0.054956704
221	0x3d8ea0f3	0.069642924
222	0x3c97bd8d	0.018523002
223	0x39bfdc23	0.00036594374
224	0x3d9741b2	0.07385577
225	0xbd83269b	-0.06403848
226	0xbd5ec14e	-0.05438357
227	0xbcdc1145	-0.026863704
228	0x3b17a869	0.0023141152
229	0x3c57b9bb	0.01316684
230	0x3d297d3b	0.041379195
231	0xbdc0c939	-0.0941338
232	0xbcb5c32e	-0.022187795
233	0xbd47276c	-0.04862158
234	0x3d6d6535	0.057957847
235	0x3cb3ee71	0.021964284
236	0x3d96ffa8	0.07372981
237	0x3d4ac056	0.049499832
238	0xbd04ea1a	-0.03244982
239	0xbd1ca042	-0.03823877
240	0x3c0817db	0.008306469
241	0xbd88b952	-0.06675972
242	0xbd7984a7	-0.060917523
243	0xbc2e0d3f	-0.010623275
244	0x3d9c5205	0.076328315
245	0x3a47631b	0.00076060154
246	0x3d5ee821	0.054420594
247	0xbbbeb083	-0.0058193817
248	0xbc23cdfe	-0.009997843
249	0xbc9a7e56	-0.01885907
250	0xbdab21b0	-0.08356035
251	0x3d6a5a69	0.057215128
252	0x3d9f2ef4	0.077726275
253	0xba8a742a	-0.0010563184
254	0x3cf8212f	0.03028926
255	0x3d46dacb	0.0485485

bias f4 [128]
0	0x3d80c2bf	0.06287145
1	0x3d58dea0	0.052946687
2	0x3d751c4d	0.059841443
3	0x3d964ad7	0.07338493
4	0xbd317198	-0.043321222
5	0xbd89d23b	-0.067295514
6	0xbd15623f	-0.036470648
7	0x3d46cc9b	0.04853497
8	0xbbb40fe1	-0.005495057
9	0x3d9a0799	0.075209804
10	0x3d8721df	0.06598257
11	0x3c86c5cf	0.016451744
12	0xbd81b613	-0.06333556
13	0x3cf761fe	0.030198094
14	0xbcdbc1e8	-0.02682586
15	0x3d7c1f94	0.061553553
16	0x3d6a23d7	0.057163086
17	0x3d9e1224	0.07718304
18	0x3d96879a	0.07350083
19	0x3d97f7ca	0.07420309
20	0xbdbbe44d	-0.09174404
21	0xb96e8764	-0.00022747886
22	0x3bbefe79	0.0058286753
23	0x3c9d6fdc	0.019218378
24	0xbcee325d	-0.02907675
25	0xbd5d1e98	-0.053984255
26	0xbda19b61	-0.07890964
27	0xbcccf181	-0.025017502
28	0xbbd7acd7	-0.0065818834
29	0xbd5d8d81	-0.054090027
30	0x3dd8b367	0.10581093
31	0x3c2a411a	0.010391498
32	0xbd8ceb4b	-0.06880816
33	0xbd724964	-0.059152022
34	0x3d00bb1d	0.031428445
35	0xbd26b203	-0.04069711
36	0x3bd19c75	0.006396825
37	0xbd9566b5	-0.072949804
38	0xbd96bd73	-0.07360353
39	0xbcbef0ea	-0.023308236
40	0x3d95fc7f	0.073235504
41	0x3d83e38c	0.064398855
42	0xbd0b3edd	-0.033995498
43	0xbd320a2a	-0.043466724
44	0x3d6acd7f	0.057324883
45	0x3d99fee8	0.07519323
46	0x3d74c38d	0.059756804
47	0x3da8f302	0.08249475
48	0x3d85fc39	0.06542248
49	0x3d3170f6	0.04332062
50	0xbd3eef34	-0.04661484
51	0xbda3ac58	-0.07991856
52	0x3da7f7fd	0.08201597
53	0xbb900a0f	-0.0043957303
54	0xbdb57dbb	-0.08861872
55	0x3c74d4f8	0.014943354
56	0x3cb47dbd	0.022032613
57	0xbc5a8a40	-0.013338625
58	0xbda7519d	-0.081698634
59	0xbd15bff1	-0.036560003
60	0xbd30ca2c	-0.043161556
61	0xbdcf1f8e	-0.101134405
62	0x3e0a1d15	0.13487656
63	0xbb800a82	-0.0039075026
64	0xbcd17a2d	-0.025570953
65	0xbd4897c9	-0.04897288
66	0x3c8556a8	0.016276672
67	0x3cc7328e	0.024316099
68	0xbd505401	-0.050861362
69	0xbd91ac54	-0.07112947
70	0x3ccad3c9	0.02475919
71	0xbc83c7d9	-0.016086506
72	0xbd4adbf6	-0.049526177
73	0x3d39b88b	0.04534201
74	0xbcc3736d	-0.02385875
75	0xbd8f45b8	-0.0699572
76	0x3d0e75a6	0.034780167
77	0xbca70c08	-0.02039148
78	0xbdac2adb	-0.084066115
79	0x3cc14ae2	0.023595277
80	0xbcfd204c	-0.03089919
81	0x3ca3fb4f	0.020017294
82	0xbc808a19	-0.01569085
83	0xbd5ef7d4	-0.054435566
84	0x3d44604b	0.047943395
85	0xbb39d746	-0.0028357073
86	0xbdb3edca	-0.08785589
87	0xbd72b8cf	-0.05925828
88	0xbd9d9434	-0.07694283
89	0xbd9d7733	-0.07688751
90	0x3c70a1b7	0.014686993
91	0xbb4a9784	-0.0030913064
92	0x3cb58830	0.022159666
93	0x3db240b5	0.08703748
94	0xbdca5d47	-0.098810725
95	0x3d169869	0.036766443
96	0xbd4e4357	-0.05035719
97	0x3c5ebed0	0.013595298
98	0x3b594aed	0.0033156232
99	0x3d8dc51d	0.06922362
100	0xbc1a3e3d	-0.009414253
101	0xbbf38cb9	-0.007432547
102	0x3d14d591	0.036336485
103	0x3c218dbe	0.009860454
104	0x3c88783d	0.016658897
105	0x3d0cc0c9	0.03436354
106	0xbd13e499	-0.03610668
107	0x3d24d6f6	0.040244065
108	0x3daa1fe0	0.08306861
109	0xbd767995	-0.060174543
110	0xbd910df5	-0.0708274
111	0x3d872ec3	0.06600716
112	0x3d454ece	0.048170857
113	0x3db2ba48	0.087269366
114	0xbcb1d2b3	-0.021706915
115	0xbd305817	-0.04305276
116	0x3d5b74ae	0.05357807
117	0xbba2f8ea	-0.0049735205
118	0x3cb678a0	0.022274315
119	0x3b1a357c	0.0023530414
120	0xbc913888	-0.017727152
121	0x3bb05e9f	0.0053823735
122	0xbdb6a00c	-0.08917245
123	0xbcf5a9b1	-0.029988142
124	0x3d9adc13	0.07561507
125	0xbd5909c1	-0.052987818
126	0xbdc7b9e7	-0.09752255
127	0x3d86e354	0.06586328

weight f4 [128, 128]
0	0x3d58f7ac	0.052970573
1	0xbd6e25fc	-0.058141693
2	0xbc76da4f	-0.015066697
3	0xbd8434d7	-0.06455391
4	0x3ac23bf8	0.0014818897
5	0x3cd6f38b	0.026239177
6	0x3cba927f	0.022774933
7	0xbdb19282	-0.08670522
8	0xbd966136	-0.0734276
9	0xbd6443d1	-0.055728737
10	0xbd38da25	-0.045129914
11	0xbc8c3423	-0.017114704
12	0xbd5d4e9b	-0.054030042
13	0x3d39e156	0.045380913
14	0xbca131a6	-0.019676995
15	0x3d95779b	0.072982036
16	0xbd22773d	-0.039664496
17	0x3d826fbd	0.06368969
18	0xbd8f418b	-0.06994923
19	0xbd751c48	-0.059841424
20	0x3e1201d4	0.1425851
21	0x3ca5580f	0.020183591
22	0xbcf37a4e	-0.029721405
23	0xbd219647	-0.039449956
24	0xbd1414a1	-0.036152486
25	0xbc25d5c4	-0.0101217665
26	0xbd51c7eb	-0.051216047
27	0xbcf5e040	-0.030014157
28	0x3cb86d91	0.022513183
29	0x3cbc7a6c	0.023007594
30	0xbb5c8de5	-0.0033653912
31	0xbc9aa800	-0.018878937
32	0x3d8e6a60	0.06953883
33	0x3dd99830	0.106247306
34	0x3c290436	0.010315945
35	0x3d98fc1d	0.07469962
36	0x3d0ed2b3	0.034868907
37	0x3b4d6ca7	0.003134528
38	0xbd23fbf2	-0.040035196
39	0x3c4af507	0.012387521
40	0x3d837dc6	0.06420474
41	0xbd1cc789	-0.03827623
42	0xbd073253	-0.033006977
43	0x3d2ffb8e	0.04296451
44	0x3d481cce	0.048855595
45	0x3ddd1825	0.10795621
46	0x3da8ff86	0.08251862
47	0xbd01d1a7	-0.03169408
48	0xbd3b6be8	-0.045757204
49	0xbdd0c2e7	-0.10193425
50	0xbd938094	-0.07202259
51	0x3d0fbc67	0.035091784
52	0x3d45336d	0.048144747
53	0xbd77fd07	-0.06054404
54	0x3cd8c8c0	0.026462913
55	0xbc8e2bd9	-0.017354893
56	0x3cd5a905	0.026081571
57	0xbdad03ea	-0.08448012
58	0x3d396b55	0.045268375
59	0xbd6ab4dd	-0.05730139
60	0x3d8149e8	0.063129246
61	0x3cf16c48	0.029470578
62	0x3dda7642	0.10667087
63	0xbd557b9b	-0.052119832
64	0xbb963d65	-0.0045849555
65	0xbd908f01	-0.07058526
66	0xbd82ab7d	-0.06380365
67	0x3c1477c2	0.009061756
68	0x3da6869e	0.08131145
69	0xbda294b0	-0.07938516
70	0x3d9be82a	0.07612641
71	0xbcae5529	-0.021280842
72	0x3daf43b2	0.08557834
73	0x3df5c788	0.12000948
74	0xbcaeba75	-0.021329144
75	0x398814a7	0.0002595533
76	0xbcc30606	-0.023806583
77	0x3cbea9c0	0.023274302
78	0x3d1d72ed	0.03843968
79	0xbc809454	-0.015695728
80	0xbd8e8f01	-0.069608696
81	0x3df1d3f8	0.11808008
82	0x3c2e9271	0.010655032
83	0xbd9699ff	-0.07353591
84	0x3d44f3b3	0.048083972
85	0x3db57964	0.08861044
86	0xbd87b768	-0.06626779
87	0xbd074cd0	-0.03303224
88	0xbc253298	-0.010082863
89	0x3d223bab	0.039607685
90	0xbd6172fd	-0.055041302
91	0x3daca499	0.08429832
92	0x3dd064b0	0.101754546
93	0xbd8bb76e	-0.06822096
94	0x3deead04	0.11654094
95	0x3d198e2e	0.03748911
96	0x3c329756	0.010900339
97	0xbc0cfaa2	-0.008604677
98	0xbd331d4b	-0.043729108
99	0xbdc1a964	-0.09456137
100	0xbc147d63	-0.009063098
101	0x3d80a4f2	0.06281461
102	0x3dad57a5	0.084639825
103	0x3d93a2c9	0.07208783
104	0x3d7c773b	0.061637145
105	0x3bc04c6b	0.0058684847
106	0x3d9b7920	0.07591462
107	0x3d3270cf	0.043564614
108	0x3dc18684	0.09449485
109	0x3db298ed	0.087205745
110	0xbd40917b	-0.04701374
111	0xbd290692	-0.04126603
112	0x3dbb68a2	0.091508165
113	0xba2aa0fa	-0.0006508973
114	0x3d25bdba	0.04046414
115	0xbd566c8e	-0.05234962
116	0xbcf25172	-0.029579852
117	0x3d30b3d3	0.043140244
118	0x3c401290	0.011723176
119	0x3d33fb9e	0.043941133
120	0x3d6412ec	0.055682108
121	0x3d9e9f50	0.0774523
122	0xbd49ba41	-0.04924989
123	0xbcacfd0a	-0.021116752
124	0xbd869d8d	-0.06573019
125	0xbd067ae5	-0.032832045
126	0x3d8ef83e	0.06980942
127	0x3b910045	0.004425081
128	0x3cfa5ade	0.030560907
129	0xbc1ba1e2	-0.009499045
130	0x3d720ad1	0.059092347
131	0xbdafb2cc	-0.08579025
132	0xbca072d8	-0.019586012
133	0x3def533b	0.11685797
134	0xbc7a7a81	-0.015287996
135	0xbd0bfef3	-0.034178685
136	0x3c916b55	0.017751375
137	0xbc8b621c	-0.017014556
138	0xbd8612d8	-0.06546563
139	0xbcc917b5	-0.024547437
140	0x3cb5b032	0.022178743
141	0x3cd4641c	0.025926642
142	0xbcc3f2be	-0.02391946
143	0x3d4d4ee6	0.05012407
144	0xbdc16b9a	-0.094443515
145	0xbd89a6b5	-0.0672125
146	0x3dd273d5	0.102759995
147	0x3aa4b593	0.001256632
148	0xbbf2031c	-0.0073856246
149	0x3d56860d	0.052373935
150	0xbd23bae9	-0.039973173
151	0xbd6c15b9	-0.057637904
152	0xbd62a8cd	-0.055336762
153	0x3d0f3e90	0.034971774
154	0xbd4872f9	-0.04893777
155	0xbdf16f23	-0.11788776
156	0x3d2a549a	0.04158459
157	0x3d22eeba	0.03977845
158	0xbc825560	-0.01590985
159	0xbd0f53a7	-0.034991886
160	0x3d816279	0.0631761
161	0x3d220047	0.039551046
162	0xbd68a942	-0.05680204
163	0xbd8b4780	-0.06800747
164	0xbcfa2e6c	-0.030539714
165	0x3ddafe5b	0.10693046
166	0x3cd385dd	0.025820667
167	0xbc9f0ce1	-0.01941532
168	0xbcfd09cc	-0.03088846
169	0x3d8d5b2c	0.06902155
170	0xbcc6abff	-0.024251936
171	0x3d45e5b9	0.048314784
172	0x3d793ca4	0.060848847
173	0xbce970c3	-0.028496152
174	0xbd984b75	-0.07436267
175	0x3cba16f1	0.022716017
176	0xbd8266eb	-0.06367286
177	0x3cbbca42	0.022923592
178	0xbd0bac38	-0.034099787
179	0xbdc39029	-0.09548981
180	0xbe1da537	-0.15395056
181	0x3dad2ede	0.08456205
182	0x3d4ad7b1	0.049522106
183	0x3ca7b40e	0.020471599
184	0xbd86e324	-0.065862924
185	0xba948db4	-0.0011333735
186	0xbddc5d75	-0.10760013
187	0xbc791659	-0.015203082
188	0x3d81ec93	0.06343951
189	0xbb876c30	-0.00413277
190	0x3ddbcd8b	0.107325636
191	0xbbd72595	-0.0065657594
192	0x3b5ff7c1	0.0034174772
193	0x3db6c14f	0.089235894
194	0xbd94d88a	-0.07267864
195	0x3d24c222	0.040224202
196	0x3be9e010	0.007137306
197	0x3d7b46f3	0.06134696
198	0xbdaed99e	-0.08537601
199	0xbc5f705c	-0.013637628
200	0xbd035b1d	-0.032069314
201	0xbd02f70a	-0.031973876
202	0x3c8c62a1	0.017136874
203	0x3cb1ed12	0.02171949
204	0x3d2fde88	0.04293683
205	0x3adce241	0.0016852097
206	0x3c91674c	0.017749451
207	0xbdab48dd	-0.08363507
208	0x3cdb026d	0.026734555
209	0x3d279608	0.040914565
210	0xbdccb9cf	-0.09996378
211	0xbd088b03	-0.033335697
212	0xbc7f7ff1	-0.015594468
213	0x3d035915	0.032067377
214	0xbd4408e3	-0.047860038
215	0x3d2fd4ec	0.042927667
216	0xbdb5fafb	-0.08885761
217	0x3de1ac13	0.11019149
218	0xbd6b289f	-0.057411786
219	0x3d5b1e98	0.053495973
220	0x3c8f725d	0.017510587
221	0x3c2df53c	0.01061755
222	0x3c8f5539	0.017496692
223	0xbdc3db63	-0.09563329
224	0xbd91e36b	-0.07123455
225	0xbd8c2c39	-0.06844372
226	0x3cd6ce0e	0.026221301
227	0xbd3462d2	-0.044039555
228	0x3d2caa10	0.04215437
229	0x3d59e5e6	0.053197764
230	0xbd8d9b66	-0.069144055
231	0x3d8ebe24	0.0696986
232	0x3c79ef1e	0.015254764
233	0x3c69f44e	0.014279438
234	0x3c6e4d3e	0.014544783
235	0x3dcd946a	0.10038073
236	0xbcae32b1	-0.021264406
237	0xbd112662	-0.035436995
238	0xbd6ac733	-0.057318877
239	0xbb9fa983	-0.0048725023
240	0x3d9b8ecc	0.07595596
241	0x3d539f50	0.051665604
242	0x3db2f7b7	0.08738654
243	0xbd55f9ed	-0.0522403
244	0xbdadda0b	-0.08488854
245	0x3d81c593	0.063365124
246	0xbd0cca58	-0.034372658
247	0xbd74a211	-0.05972487
248	0x3e0113ad	0.12605162
249	0xbddf2bb2	-0.10897006
250	0x3c4725c0	0.012154996
251	0x3df162aa	0.11786397
252	0xbd990d8c	-0.07473287
253	0x3d595479	0.053059075
254	0xbda7b681	-0.08189107
255	0x3c205057	0.0097847795

bias f4 [128]
0	0x3cf9a7c2	0.030475501
1	0xbd47ea7c	-0.048807606
2	0xbcc73fc0	-0.02432239
3	0x3ce438fa	0.0278592
4	0x3b4d0af0	0.0031287037
5	0x3d14d8c2	0.03633953
6	0xbcf3a036	-0.02973948
7	0xbc074af6	-0.008257618
8	0x3d1cdef0	0.038298547
9	0xbda97170	-0.082735896
10	0xbde62e1f	-0.11239266
11	0x3c8aa488	0.016924158
12	0x3dced14d	0.10098515
13	0xbd884fe1	-0.06655861
14	0x3d565e7c	0.0523362
15	0xbc7294f9	-0.014806026
16	0x3cf25e4a	0.029585976
17	0xbce196b0	-0.027537674
18	0xbc9ba7d4	-0.019000925
19	0xbce95810	-0.028484374
20	0x3cde51fc	0.027138703
21	0x3bdbbd1d	0.0067058937
22	0xbceeeae7	-0.029164745
23	0xbd1543fc	-0.036441788
24	0xbd2fd0df	-0.042923804
25	0xbdb9bfce	-0.09069787
26	0xbc1a7d85	-0.00942934
27	0xbda962be	-0.08270787
28	0xbd7ee7dc	-0.062232837
29	0xbd6675f0	-0.056264818
30	0xbceb55cb	-0.028727433
31	0x3dbb06de	0.09132169
32	0x3daeb0d0	0.08529818
33	0x3d01f714	0.031729773
34	0xbd074727	-0.03302684
35	0xb9ca4a73	-0.0003858391
36	0x3d9e4e6b	0.07729801
37	0x3dc20c66	0.09475021
38	0x3d8afda8	0.06786662
39	0x3cbb0aed	0.022832358
40	0xbdd36303	-0.10321619
41	0xbdad1546	-0.08451323
42	0x3dd336bd	0.10313175
43	0x3dd5c3f1	0.104377635
44	0xbd8ba523	-0.06818607
45	0x3d884b8b	0.06655034
46	0xbdb462e2	-0.08807923
47	0xbb6c09ac	-0.0036016507
48	0xbd35d0a7	-0.04438844
49	0xbd36110d	-0.044449855
50	0x3d2afc82	0.041744716
51	0xbd0ad4c5	-0.03389432
52	0xbcb7fd93	-0.02245978
53	0x3ca82cb4	0.020529129
54	0x3d9cf07c	0.07663056
55	0xbd6d3b7b	-0.057918053
56	0xbc6d951b	-0.014500882
57	0xbd1af4e8	-0.037831217
58	0x3ae366c6	0.0017349354
59	0xbd8cf6aa	-0.06882985
60	0xbd6ce7ff	-0.057838436
61	0xbd75c836	-0.06000539
62	0x3d07f6bd	0.033194292
63	0xbd7c2590	-0.06155926
64	0x3cda7d0a	0.026670951
65	0x3d4b042b	0.04956452
66	0x3da55704	0.080732375
67	0xbce24765	-0.027621934
68	0x3cd2d016	0.025733989
69	0x3de7a83b	0.11311384
70	0xbc8c15c2	-0.017100219
71	0xbd33cc22	-0.043895848
72	0x3ceae80d	0.028675104
73	0x3cef53ac	0.029214703
74	0x3bbb013b	0.005706934
75	0x3d1ab1e8	0.03776732
76	0x3d9e79c4	0.07738069
77	0x3ba55474	0.005045468
78	0x3cf4847c	0.02984833
79	0xbd075ee8	-0.033049494
80	0x3ce86d02	0.028372291
81	0xbd2bb185	-0.041917343
82	0x39a887ab	0.00032144538
83	0x3c6254fd	0.013814208
84	0x3d5fcc6c	0.05463831
85	0x3cafe745	0.021472583
86	0x3d76f9dc	0.06029688
87	0xbd446de0	-0.047956347
88	0xbd20724a	-0.039171495
89	0xbd4446a1	-0.04791892
90	0x3d64ee6f	0.05589145
91	0xbb08c47d	-0.002086907
92	0xbd0176f1	-0.031607572
93	0x3d53c13d	0.05169796
94	0xbd5d8b3b	-0.05408786
95	0xbd0f5093	-0.03498895
96	0xbd8032c0	-0.0625968
97	0xbcb0ba9d	-0.02157336
98	0xbdb55c39	-0.08855481
99	0xbd53a381	-0.0516696
100	0xbdaa32ab	-0.083104454
101	0xbcdac91b	-0.026707223
102	0xbcc53dec	-0.024077378
103	0xbcaec68b	-0.021334907
104	0x3d5966d2	0.053076573
105	0xbcbfcc91	-0.023412975
106	0xbde187c0	-0.110122204
107	0xbc9fbe95	-0.019500056
108	0x3ccb8d3f	0.024847625
109	0x3d4f6876	0.05063673
110	0x3ca9959b	0.02070122
111	0x3dff1f9f	0.12457203
112	0xbd41f8c9	-0.0473564
113	0xbd0c8d58	-0.034314483
114	0xbd15510c	-0.036454245
115	0x3c3f5f87	0.01168049
116	0x3da50194	0.08056942
117	0xbbd4bc7b	-0.006492195
118	0x3d548280	0.051882267
119	0x3db1adfb	0.08675762
120	0x3bd5b7ea	0.0065221684
121	0x3d4f8b9e	0.05067026
122	0xbd445f8e	-0.04794269
123	0x3d02fb60	0.03197801
124	0xbcedaa8a	-0.029011983
125	0x3d8eac73	0.06966486
126	0xbb752980	-0.003740877
127	0xbd23bc82	-0.039974697

weight f4 [128, 128]
0	0x3c01c444	0.0079203285
1	0x3d05d2e6	0.03267183
2	0x3d80162c	0.06254229
3	0xbd88c895	-0.06678883
4	0xbdaa72ff	-0.08322715
5	0x3c1a8376	0.009430757
6	0xbc210e7d	-0.009830114
7	0x3d12ff3c	0.03588794
8	0xbc841b75	-0.016126374
9	0x3d9c6712	0.076368466
10	0x3cc4d2cc	0.024026297
11	0xbd6f676f	-0.05844825
12	0x3db4d270	0.088292
13	0x3d85d464	0.06534651
14	0xbdba4c3b	-0.09096571
15	0xbd8ebfbd	-0.06970165
16	0x3db009ed	0.08595643
17	0xbdb72e60	-0.08944392
18	0xbd34fbc3	-0.04418541
19	0x3da6870c	0.08131227
20	0x3d757c96	0.059933268
21	0xbd2ee23a	-0.042696215
22	0x3d8184f3	0.06324186
23	0xbda1d221	-0.07901407
24	0x3d8a43f4	0.06751242
25	0x3d4b9f7b	0.04971264
26	0xbd5df915	-0.05419262
27	0x3d01582c	0.031578228
28	0xbbd406e3	-0.0064705475
29	0xbcafc908	-0.021458164
30	0x38bd59df	9.028962e-05
31	0xbd7a879e	-0.06116449
32	0xbbf3e85f	-0.0074434723
33	0x3d21217c	0.039338574
34	0x3d62aac2	0.05533863
35	0xbc50b50a	-0.012738476
36	0xbdca4136	-0.09875719
37	0xb98b9b22	-0.0002662773
38	0x3d6bd9bc	0.057580695
39	0xbac8f008	-0.0015330324
40	0xbdb46f16	-0.088102505
41	0x3ace9e8f	0.0015763807
42	0x3d6cec2d	0.057842422
43	0xbc66d04e	-0.01408775
44	0x3c838570	0.016054839
45	0xbd1ba6c1	-0.038000826
46	0xbc82e075	-0.01597617
47	0x3d6639e3	0.05620755
48	0xbc438d5f	-0.011935561
49	0x3cdd31b9	0.027001249
50	0xbbc69d56	-0.0060612364
51	0xbd1edbb4	-0.038783744
52	0xbbba5244	-0.0056860764
53	0x3d937ff3	0.07202139
54	0x3d9ef5a7	0.07761698
55	0x3d34f45b	0.044178348
56	0x3ca74c43	0.020422107
57	0x3ce3ef83	0.027824169
58	0x3d9ee4c0	0.07758474
59	0xbd1a7cb7	-0.037716594
60	0x3d8e24c7	0.069406085
61	0xbd8b6f48	-0.068083346
62	0xbb390207	-0.0028229968
63	0xbd27a9bf	-0.040933367
64	0x3c10a661	0.00882873
65	0x3c84ae46	0.016196381
66	0xbd89310e	-0.066988096
67	0xb9f685e7	-0.0004702054
68	0xbdaf3914	-0.08555809
69	0xbd33595c	-0.04378639
70	0xbd00570c	-0.031333014
71	0x3d9eff63	0.07763555
72	0xbd3827fc	-0.044960007
73	0xbc16d809	-0.00920678
74	0xbdc74ce1	-0.0973146
75	0xbda29a1f	-0.079395525
76	0xbcec94fc	-0.028879635
77	0xbda87bb3	-0.08226719
78	0xbbe5ea0a	-0.007016425
79	0x3d4d245d	0.050083507
80	0xbd2597f3	-0.040428113
81	0x3c52b3e0	0.012860268
82	0x3ddd6744	0.10810712
83	0xbd619f8d	-0.0550838
84	0x3c4c91c3	0.012485924
85	0x3d99d916	0.07512109
86	0x3d6b5a0d	0.057458926
87	0x3d90d335	0.070715345
88	0xbd7c871b	-0.061652284
89	0xbd65d1a8	-0.056108147
90	0x3d97d80a	0.07414253
91	0x3d51f030	0.05125445
92	0x3dbadb32	0.091238394
93	0xbc6af5be	-0.014340816
94	0x3cfdb45f	0.030969797
95	0x3d766e89	0.06016401
96	0x3c021f32	0.007942008
97	0x3bd0c569	0.0063711894
98	0x3c305b51	0.010763959
99	0xbd9e1b35	-0.07720033
100	0xbcdab55b	-0.026697805
101	0xbd8ac11f	-0.06775116
102	0x3be35c9d	0.0069385306
103	0x3cd0e3ed	0.025499308
104	0x3d2dc380	0.04242277
105	0x3d211c47	0.039333608
106	0x3c3755f8	0.01118993
107	0xbd58f1a3	-0.052964818
108	0xbd8a2940	-0.06746149
109	0xbd86d5b1	-0.06583727
110	0xbd56b918	-0.052422613
111	0xbd2d17d0	-0.042259037
112	0x3d3eb3b8	0.046558112
113	0xbd649275	-0.055803735
114	0x3d84ec28	0.06490356
115	0xbd2af608	-0.04173854
116	0xbdab35a7	-0.08359843
117	0x3d60aae1	0.054850463
118	0xbd29e3fe	-0.041477196
119	0xbd9c10ad	-0.07620368
120	0xbd58a06c	-0.052887365
121	0x3d5ea3ea	0.05435554
122	0x3daa806e	0.08325277
123	0xbd9bf7bc	-0.07615611
124	0x3d91e663	0.07124021
125	0xbc81b46b	-0.0158331
126	0xbc7c8367	-0.015412188
127	0xbd177ea8	-0.036986023
128	0x3dada082	0.0847788
129	0xbd1d91f7	-0.03846928
130	0x3d8b7d1d	0.06810973
131	0x3b49c201	0.0030785801
132	0x3daa047b	0.08301636
133	0xbd21115c	-0.039323196
134	0xbce4d277	-0.027932389
135	0xbbac07e0	-0.005249962
136	0xbda612ba	-0.081090406
137	0xbd135a5f	-0.035974856
138	0x3cba5674	0.022746302
139	0xbcd435c2	-0.02590454
140	0xbd837549	-0.06418855
141	0xbcf34a88	-0.029698625
142	0xbd548ddf	-0.05189311
143	0x3dace1e5	0.084415235
144	0x3ce5d52b	0.028055748
145	0x3d00e075	0.03146406
146	0x3d60ee1a	0.05491457
147	0xbd835cf6	-0.06414215
148	0x3b70a2e2	0.003671818
149	0xbd929f15	-0.07159249
150	0x3d17cf84	0.037063137
151	0x3ce633f4	0.028100945
152	0xbda6e359	-0.08148832
153	0xbbe2a372	-0.006916457
154	0xbd53f461	-0.05174673
155	0xbda6ebaa	-0.08150418
156	0xbd786cdc	-0.06065069
157	0xbd164248	-0.036684304
158	0xbc34f6ac	-0.011045139
159	0x3a1091a4	0.0005514866
160	0xbd26e73e	-0.040747873
161	0x3d9cdaf4	0.076589495
162	0xbdb0e1e6	-0.08636837
163	0xbd861d2f	-0.06548535
164	0xbd187fd5	-0.037231285
165	0x3db555bc	0.08854243
166	0x3d226a19	0.039651964
167	0xbd087401	-0.033313755
168	0x3d36ee60	0.044660926
169	0xbdbf6650	-0.093456864
170	0xbce2de4d	-0.027693892
171	0xbd31221b	-0.043245416
172	0xbd4d4d06	-0.050122283
173	0xbc833b0e	-0.01601937
174	0x3c1454d0	0.009053424
175	0xbdb8a099	-0.090150066
176	0xbd4504eb	-0.048100393
177	0x3d20fd82	0.039304264
178	0x3c5dfa2a	0.013548413
179	0x3c9f902d	0.019477928
180	0xbd4d56d7	-0.050131645
181	0x3afc699b	0.0019257547
182	0xbc00e40d	-0.007866872
183	0x3dad6d03	0.08468058
184	0x3c912149	0.017716067
185	0xbd54f8e1	-0.051995162
186	0xbcddfa22	-0.027096812
187	0xbbfd2f73	-0.0077266037
188	0x3cde1456	0.027109306
189	0xbce26cc6	-0.027639758
190	0x3da3ff05	0.080076255
191	0xbd5325bb	-0.051549654
192	0x3d95f6d8	0.07322472
193	0x3b3219f8	0.0027176123
194	0xbdab9e54	-0.08379808
195	0xbc08599f	-0.008322149
196	0xbb731833	-0.0037093281
197	0x3d3744c3	0.04474331
198	0xbd886191	-0.06659234
199	0x3d21ff7c	0.03955029
200	0x3c5cdd7f	0.013480543
201	0x3cf03b44	0.029325135
202	0x3cd4c558	0.025973007
203	0x3c83faa7	0.016110731
204	0x3c18ec42	0.009333672
205	0xbc961d53	-0.01832453
206	0x3b4060bf	0.002935454
207	0x3d5a1cca	0.05325011
208	0x3c0f203c	0.008735713
209	0xbd0c9155	-0.034318287
210	0x3db29f64	0.087218076
211	0xbd3e4920	-0.046456456
212	0xbd68bb98	-0.05681953
213	0xbd03a563	-0.032140147
214	0xbd911f6f	-0.070860736
215	0xbc52bb4c	-0.012862038
216	0xbd3024f1	-0.04300398
217	0xbd88c9e2	-0.06679131
218	0x3d554119	0.052064035
219	0xbd922375	-0.07135669
220	0xbd3726c2	-0.044714697
221	0xbd6725d0	-0.056432545
222	0xbd53640b	-0.05160908
223	0x3c8b4eaa	0.017005283
224	0x3daab6eb	0.0833567
225	0xbd00286c	-0.03128855
226	0x3cf16dd3	0.029471314
227	0x3cebe01a	0.028793383
228	0x3bbb3e7c	0.005714236
229	0xbd498de8	-0.049207598
230	0xbda0c1a1	-0.07849432
231	0x3d3dfef5	0.046385724
232	0x3cffcfdd	0.031227047
233	0xbdaf6aa1	-0.0856526
234	0x3ce7da21	0.028302254
235	0xbd2954ad	-0.04134052
236	0x3d852810	0.06501782
237	0xbda11220	-0.07864785
238	0x3da3d035	0.07998697
239	0x3d5e6833	0.05429859
240	0xbd9a8540	-0.07544947
241	0xbd443c4a	-0.04790906
242	0x3cb54d2d	0.022131527
243	0xbd6df656	-0.058096252
244	0xbcabb6b8	-0.02096115
245	0xbcb74344	-0.022370942
246	0x3d51be3a	0.051206805
247	0x3d8b0f78	0.0679006
248	0x3d2f8676	0.04285284
249	0x3d5036fd	0.05083369
250	0xbd949c67	-0.07256394
251	0xbc26fac1	-0.01019162
252	0x3ce058c6	0.02738608
253	0xbd0c4cd2	-0.03425295
254	0xbd2a406c	-0.041565344
255	0x3d61d116	0.05513104

bias f4 [128]
0	0x3d85414e	0.065065965
1	0xbc0d7a83	-0.008635166
2	0x3d9fb920	0.07798982
3	0xbda262eb	-0.07929023
4	0xbb9b8735	-0.0047463425
5	0x3d8a7b6a	0.067618206
6	0x3d57d6ec	0.0526952
7	0xbd3f6b68	-0.04673329
8	0xbc452578	-0.012032859
9	0xbda9bde5	-0.08288173
10	0xbd8d35d7	-0.06895035
11	0x3c8b8366	0.01703043
12	0x3d06d264	0.032915488
13	0xbd5b2c86	-0.053509258
14	0x3da6be3b	0.08141752
15	0xbb6e095c	-0.0036321497
16	0xbc6e25f8	-0.01453542
17	0x3c94d075	0.018165806
18	0xbd4c9c8c	-0.049953982
19	0x3c104c20	0.008807212
20	0xbd6dbbd0	-0.05804044
21	0xbd71fd93	-0.059079718
22	0xbd449753	-0.047995877
23	0x3cf21046	0.029548775
24	0xbd25e85a	-0.04050479
25	0x3c5b7f83	0.0133971
26	0xbd8e81b7	-0.06958335
27	0x3c853a89	0.016263263
28	0xbd056cb7	-0.03257438
29	0x3da97ee9	0.08276159
30	0x3d32c45f	0.043644305
31	0x3d7acd02	0.061230667
32	0x3c3c722a	0.011501828
33	0x3cd17f8d	0.025573516
34	0x3d46ecbb	0.048565608
35	0xbc97a5b2	-0.018511627
36	0xbccc81ca	-0.024964232
37	0xbced69cf	-0.028981118
38	0x3cad9d6e	0.021193232
39	0x3d8b0f15	0.06789986
40	0xbdbb2194	-0.09137264
41	0xbda34e68	-0.07973939
42	0xbc312634	-0.010812331
43	0xbd5a1b4f	-0.0532487
44	0xbd212f48	-0.03935173
45	0x3d7b4a66	0.06135025
46	0xbc350261	-0.01104793
47	0xbd846585	-0.06464676
48	0xbc57fc1e	-0.013182668
49	0x3d853cd4	0.06505743
50	0x3c3a05d9	0.011353933
51	0xbd97129e	-0.07376598
52	0x3d48af2f	0.048995193
53	0x3d741ca1	0.059597615
54	0x3cf1b62f	0.029505817
55	0x3d040aaa	0.032236733
56	0x3ccf0484	0.025270708
57	0x3d7b443e	0.061344378
58	0x3d822600	0.06354904
59	0x3d52ac1e	0.051433675
60	0x3b2fa84f	0.00268032
61	0xbcc4da1b	-0.024029782
62	0xbd09538b	-0.03352694
63	0x3d373e59	0.044737194
64	0xbdafac1f	-0.08577751
65	0x3d4adad8	0.049525112
66	0xbd5ce635	-0.05393048
67	0xbbaacf69	-0.0052127135
68	0x3cca2daf	0.024679987
69	0x3d2c3f7b	0.042052727
70	0x3d8fb428	0.07016784
71	0x3db51122	0.088411584
72	0xbd5a9ee9	-0.053374205
73	0xbd8b2bbe	-0.067954525
74	0x3d0c9608	0.03432277
75	0x3aada670	0.0013248455
76	0x3d54dcb0	0.051968277
77	0x3da505db	0.080577575
78	0x3da40761	0.0800922
79	0xbd82a611	-0.06379331
80	0x3d12bddd	0.0358256
81	0xbd1aa915	-0.037758905
82	0xbd8dd8cb	-0.069261156
83	0xbc52d0d5	-0.012867172
84	0x3ccdadde	0.02510732
85	0x3c6c10c2	0.014408292
86	0x3d9956c2	0.07487251
87	0xbda9b8d8	-0.08287209
88	0x3d6c1e1a	0.057645895
89	0x3d916330	0.07098997
90	0xbcfcbd43	-0.030851966
91	0xbda2e955	-0.07954661
92	0x3db18a5d	0.08668969
93	0x3dae1df2	0.08501805
94	0x3cbec702	0.023288254
95	0x3b05ebec	0.002043481
96	0xbc73d917	-0.014883301
97	0xbd316e56	-0.043318115
98	0x3da6dde5	0.08147792
99	0xbc1278a6	-0.008939898
100	0x3db7d91d	0.08976958
101	0xbcea9eaf	-0.02864012
102	0xbcdd0a3b	-0.026982417
103	0x3d6baca8	0.057537705
104	0xbcfcfbe9	-0.030881839
105	0x3d1db555	0.03850301
106	0xbdbfb13c	-0.09359977
107	0xbd5ccca9	-0.053906117
108	0xbd1252c4	-0.035723463
109	0x3d8e9924	0.06962803
110	0x3d9442ed	0.072393276
111	0x3d8b7706	0.06809811
112	0x3cfec0a0	0.03109771
113	0x3cc26eb2	0.023734424
114	0x3d2265b3	0.03964777
115	0x3c0289b0	0.007967398
116	0x3d56a737	0.052405562
117	0x3d8877d9	0.06663484
118	0x3ca6ba95	0.020352641
119	0x3d42900f	0.047500666
120	0xbc3718b2	-0.011175321
121	0x3da3cb8a	0.07997806
122	0xbca19c13	-0.019727742
123	0xbb1ed228	-0.002423415
124	0xbd65c953	-0.0561002
125	0xbd2a4bb5	-0.041576106
126	0x3cb664bc	0.02226483
127	0x3d37f278	0.04490897

weight f4 [128, 128]
0	0xbd837d8a	-0.06420429
1	0xbc8b8cf1	-0.01703498
2	0xbc8f19fc	-0.017468445
3	0xbd6d3adc	-0.05791746
4	0x3d18ca18	0.037302107
5	0xbda8dfaa	-0.082457855
6	0x3d641cf7	0.055691686
7	0x3cff4912	0.031162772
8	0xbcf831f4	-0.030297257
9	0x3ce30a29	0.027714806
10	0xbd86b36a	-0.06577189
11	0x3c20dae3	0.009817812
12	0xbd94a4bf	-0.07257985
13	0x3d3a5cd5	0.045498688
14	0x3d0708ee	0.0329675
15	0xbce9df5c	-0.028548889
16	0xbd9f1bc2	-0.07768966
17	0xbd8c1ed5	-0.06841818
18	0xbc92f12a	-0.017937262
19	0xbd4959dc	-0.049157962
20	0x3d86170f	0.06547367
21	0x3cd4258d	0.025896812
22	0xbd8e6a46	-0.06953864
23	0xbc5561e8	-0.013023831
24	0x3d802d76	0.06258671
25	0x3d9d132f	0.076696746
26	0x3cc4858c	0.023989461
27	0xbdb09b76	-0.08623402
28	0x3cd402b9	0.025880205
29	0x3d41c77c	0.047309384
30	0x3ca5ce0e	0.020239856
31	0xbd40d9ac	-0.047082588
32	0x3d25ad26	0.04044833
33	0xbd17192a	-0.036889233
34	0xbcb81ad3	-0.022473728
35	0x3d89ab5b	0.067221366
36	0x3c9bea01	0.01903248
37	0xbcd38ed7	-0.025824947
38	0xbd9a62a0	-0.075383425
39	0x39fac68a	0.0004783164
40	0x3c10948c	0.008824479
41	0xbc28dbe5	-0.010306333
42	0xbd24d8d4	-0.040245846
43	0xbce03221	-0.027367653
44	0xbdae4955	-0.08510081
45	0x3d3858fe	0.045006745
46	0x3ce4f85d	0.02795046
47	0x3c754d77	0.014972082
48	0x3c295c98	0.0103370175
49	0xbb960c23	-0.0045790835
50	0xbd6ecb1b	-0.058299165
51	0x3d5271ef	0.051378187
52	0xbbe974a8	-0.007124502
53	0x3c370c46	0.01117236
54	0xbb8d7178	-0.004316505
55	0xbdb2ed1c	-0.08736631
56	0xbccafcf1	-0.024778815
57	0x3da38b6b	0.07985576
58	0x3d2dc904	0.04242803
59	0xbd19d4f4	-0.037556604
60	0xbd9bea46	-0.076130435
61	0xbb77cbda	-0.0037810714
62	0xbd00872a	-0.031378902
63	0x3d061e12	0.03274352
64	0xbd37c369	-0.044864092
65	0x3dbce6ef	0.092237346
66	0x3d949c75	0.07256404
67	0xbd0f3798	-0.034965128
68	0x3c7646b1	0.015031503
69	0x3c938e28	0.018012121
70	0x3d967918	0.073473155
71	0xbd18d872	-0.037315793
72	0xbc055847	-0.008138723
73	0x3c6b0bfb	0.014346118
74	0x3d04b7ef	0.032401975
75	0xbcff3097	-0.0311511
76	0xbd9b2f89	-0.07577426
77	0xbbc6b6ed	-0.006064287
78	0x3c72758e	0.014798535
79	0x3d34bccc	0.044125363
80	0x3d939a85	0.07207207
81	0xbbd32a12	-0.006444224
82	0x3d6f94ae	0.0584914
83	0xbda0d000	-0.07852173
84	0xbd90fae8	-0.070791066
85	0xbd0d6ba7	-0.034526493
86	0x3d390ad1	0.04517633
87	0xbc807754	-0.0156819
88	0xbc82a466	-0.015947532
89	0x3d546b15	0.051859934
90	0x3d3c82f2	0.046023317
91	0xbd1d2f4f	-0.038375195
92	0xbd60fd72	-0.054929204
93	0x3cb6ee3f	0.022330401
94	0x3c838cde	0.016058382
95	0x3d6910b9	0.056900714
96	0xbd99928f	-0.07498657
97	0xbd69152b	-0.056904953
98	0xbd2cb64c	-0.04216604
99	0x3d10153c	0.0351765
100	0x3d87b3bb	0.06626078
101	0xbd06a18a	-0.0328689
102	0x3c328eda	0.010898316
103	0x3d2b500f	0.041824397
104	0x3ac95a31	0.0015361962
105	0xbd851562	-0.06498219
106	0x3d219565	0.039449114
107	0x3d14ecf2	0.03635878
108	0xbd2d5242	-0.042314775
109	0xbd7987e9	-0.06092063
110	0x3d33b80c	0.043876693
111	0xbd5b40a3	-0.05352844
112	0xbd613b37	-0.054988112
113	0x3c716173	0.014732706
114	0xbd95c349	-0.07312638
115	0x3d7d38bd	0.061821688
116	0x3db93b2a	0.09044488
117	0x3d455b83	0.048182976
118	0x3d4d645a	0.05014453
119	0x3d37d621	0.044881944
120	0x3d9e141f	0.077186815
121	0xbd8b0569	-0.06788141
122	0x3d9c5aaf	0.07634484
123	0xbd5b78ba	-0.05358193
124	0xbd02bf38	-0.03192064
125	0xbda1362a	-0.07871659
126	0x3db02c31	0.08602179
127	0xbd9ed2a9	-0.07755024
128	0xbc933bef	-0.017972915
129	0xbd628cde	-0.055310123
130	0x3da599d8	0.08085984
131	0x3c33ad71	0.010966645
132	0x3c925943	0.017864829
133	0xbda28325	-0.0793517
134	0xbd71ffe4	-0.059081927
135	0xbd4d1e82	-0.050077923
136	0xbd495551	-0.04915363
137	0xbd5041b7	-0.05084392
138	0xbd84b103	-0.06479075
139	0x3be71718	0.0070523135
140	0x3d6ca99d	0.057778943
141	0x3dac3786	0.08409028
142	0xbd59e5dd	-0.05319773
143	0xbdb84ad4	-0.08998647
144	0xbc985c06	-0.018598568
145	0x3d3f51f6	0.046709023
146	0x3d21c454	0.039493874
147	0x3cf44b8b	0.029821178
148	0x3dbeaf43	0.09310772
149	0xbd335368	-0.043780714
150	0x3d8fc3a3	0.070197366
151	0x3a848af0	0.0010112207
152	0xbdbfff22	-0.093748346
153	0xbdcb1491	-0.09916032
154	0x3d387126	0.04502978
155	0xbd8846b5	-0.06654111
156	0xbcd2d9f6	-0.025738697
157	0xbcd92a50	-0.026509434
158	0xbd2b86b3	-0.041876506
159	0x3da3b54c	0.07993564
160	0x3d9630c2	0.073335186
161	0xbc896d52	-0.01677576
162	0x3ce0bf31	0.027434917
163	0xbd32c55a	-0.04364524
164	0x3da613f7	0.08109277
165	0xbc2c68e5	-0.010523056
166	0xbd409fef	-0.047027525
167	0xbd8c63a4	-0.068549424
168	0xbcb46ac1	-0.02202356
169	0xbd9be208	-0.076114714
170	0xbc7ee907	-0.015558488
171	0x3d5ca9f7	0.05387303
172	0x3d6237e3	0.05522908
173	0x3b0a32c8	0.0021087397
174	0xbd57131d	-0.052508462
175	0xbd5e4b62	-0.05427111
176	0xbd9eb3e1	-0.07749153
177	0xbb4fada9	-0.0031689203
178	0xbd302547	-0.0430043
179	0xbb8391f6	-0.0040152026
180	0xbd9d7f66	-0.07690315
181	0xbb963165	-0.004583525
182	0x3c6437f6	0.013929358
183	0x3d9348f2	0.071916476
184	0xbd9e0400	-0.07715607
185	0x38f9867f	0.00011898297
186	0x3dc0dae6	0.094167516
187	0xbc4c7d1a	-0.012480998
188	0x3d4b02c3	0.04956318
189	0x3d5b0d52	0.0534795
190	0x3c2bdf82	0.0104903
191	0x3d42cbc0	0.047557592
192	0x3c3f3be9	0.011671999
193	0xbd6c38cf	-0.057671364
194	0xbc9e0834	-0.01929102
195	0xbdad45dc	-0.0846059
196	0xbc797a84	-0.015226964
197	0xbdc6733c	-0.09689948
198	0x3d9ed077	0.07754605
199	0xbd9be6fd	-0.07612417
200	0xbc33c800	-0.010972977
201	0x3d550097	0.052002516
202	0xbcbc74fb	-0.023005
203	0xbcbee274	-0.02330134
204	0xbcd9a8f7	-0.026569827
205	0xbc17a66c	-0.009255987
206	0xbd032272	-0.03201527
207	0x3d8db1c5	0.069186725
208	0x3d16abf7	0.036785092
209	0x3c79b6f6	0.015241375
210	0x3daa8326	0.08325796
211	0xbd757979	-0.0599303
212	0x3db80c7a	0.08986755
213	0x3d5fdb51	0.054652516
214	0xbccbb380	-0.024865866
215	0xbd97e3ed	-0.0741652
216	0xbd16c978	-0.03681323
217	0x3bee596c	0.0072738435
218	0x3d29c0b9	0.04144356
219	0x3cb2fe42	0.021849755
220	0x3cd40a22	0.025883738
221	0xbd08befc	-0.033385262
222	0xbc9de8c8	-0.019276038
223	0x3d984033	0.0743412
224	0x3d338618	0.043829054
225	0x3d52e2db	0.051485877
226	0xbb9a01b8	-0.004699912
227	0xbd7df210	-0.061998427
228	0xbb1c78c7	-0.00238757
229	0x3d20f73d	0.039298285
230	0x3c65c286	0.014023429
231	0x3da8d8be	0.08244465
232	0xbd82d248	-0.06387764
233	0x3d9f6d27	0.07784491
234	0xbd117d36	-0.0355198
235	0xbc9a4ebc	-0.018836372
236	0xbb8bb593	-0.0042635887
237	0xbd4ab678	-0.049490422
238	0x3d2ef1ae	0.042710952
239	0x3d7a0bf3	0.061046552
240	0xbd44e66f	-0.04807132
241	0x3d6cc12a	0.057801403
242	0xbd8cba81	-0.0687151
243	0xba1c67f9	-0.0005966421
244	0xbcac53c1	-0.02103603
245	0xbd0c59ce	-0.034265332
246	0xbd923a1d	-0.071399905
247	0x3c83e81d	0.016101891
248	0x3cd76245	0.026291976
249	0xbda05b59	-0.07829923
250	0xbd0dd26e	-0.03462451
251	0xbd3395b9	-0.04384396
252	0xbd133ac4	-0.035944715
253	0x3cf8e5ec	0.030383073
254	0x3c71d56c	0.014760356
255	0x3d406ada	0.0469769
